Sources/Data/Weights/weight.pth (torch, 179486 bytes, 9 tensors)

gru.weight_ih_l0 f4 [150, 132]
00000000: bf0f fd3d a53f 163e c320 a03d a6a0 0f3e
00000010: a005 223d 3720 163e ea44 683e 487b 053e
00000020: 0a0d 483d 7036 593e d7e0 b93e adba c93d
00000030: 09e1 6c3e fee7 a43b b197 773e cc11 7f3e
00000040: 0836 403e 8c40 c93d 3b6e 7f3e 2231 053e
00000050: 0388 3f3d b980 fab8 0241 3c3e 65f7 543e
00000060: 9291 2f3e a752 273e 566b 0f3e dcfd de3d
00000070: 788a 053e 9062 243e 02d6 713e b622 1f3e
00000080: 308c 463e bae0 ea3b 43a0 a43e 1806 513e
00000090: 04e2 343e f743 323e 65e3 893e 1017 103e
000000a0: 40da afbb 1ccb 3e3e bbd1 843e 4be2 2c3e
000000b0: 66f3 0d3e 1ab3 2f3e 0d67 f83e 7328 043e
000000c0: 85f6 293e 8ba6 3fbb 94b5 ab3e 583e 5e3e
000000d0: 83b9 6b3e a54a 4b3e 6713 723e eb40 b4bd
000000e0: ec1a 29bd 5f10 08bd 2d71 aa3d b3ca 80bd
000000f0: 1724 623e b528 913c e7af 6dbe e9e4 dbbd
00000100: 2ffe 9cbd 5236 8d3d 0168 123e d060 2f3e
00000110: 26cd 623e d7d6 9d3d 6aaf adbe 10d1 113d
00000120: 5c4d 5dbc 3d2d 433d b04a d53d d7fd 353d
00000130: a775 0ebd 483c 953c 824c 7bbe 2c8c 963b
00000140: 9bcd 073e 0e84 283e 5b1b a13d f743 213d
00000150: 3fff 153d cc56 ab3d 9c36 bbbd 6f48 163e
00000160: 065f 1ebd 46b1 b0bd ccf6 603e df6e 273e
00000170: 4785 3f3e b940 453e c116 01bc c5a3 373e
00000180: a0a5 a2bc 7b59 803e 9370 383d a893 ce3d
00000190: 75fd 353e 6fd2 3d3e 3142 b1be 3b21 6c3b
000001a0: 45b8 003e 6ddf 8d3e 84b6 90be b43f 103e
000001b0: 834a 4f3e c82a 923e 8514 8abe 1cc0 4dba
000001c0: 46a1 0d3e b055 4b3e b319 07bf 415f 9b3e
000001d0: 655e 9e3d dc32 5c3e 129e 66be 32c2 673d
000001e0: 2db6 203e 03fb 4d3e 6273 d1be 20db 8b3e
000001f0: b470 ab3c 54bb 303e 56b3 f0bd e0ba 03be
00000200: 0e79 d73c ea5d 323e 2fb2 dabe 3a47 973d
00000210: f2f9 aebe f74d c1bd 32ff 8e3c a579 9cbe
00000220: 6af2 0bbf b12d cabd c98d e7bc c7fc a4be
00000230: bd1a 97be d70b e13b 3c25 fcbd 0722 7abe
00000240: ecdf d6be 2eec eebd 3c49 e33d 73af 4fbe
00000250: 0b30 05bf f9c8 133c ab66 89bd 70df b4be
00000260: 786e 03bf 7a7a a2bb 114e 79bc cce5 b2be
00000270: b74c bbbe 0e17 4ebc bd82 d9bc c976 38be
00000280: f96f a9be 364c 0fbe 2a74 68be 8327 8ebe
00000290: 3bb8 97be 209d 8ebd f66a 603e 263a aabe
000002a0: ee8b a4be 4fd8 f2bc 3b89 4d3d deb8 0dbe
000002b0: 045a a1be 6bc7 ffbd c67e 3e3d ba8f 0fbe
000002c0: c7fe cebe 726f 05be 4601 d5be df8a 9fbe
000002d0: d39f 11bf 3ae6 8e3d 3c80 d43e f2ab 4bbe
000002e0: ddae e3be 3835 0d3d 0a1a 78bf 0ffa a6be
000002f0: 86ab 00bf 902a e8bd cf3b 973e 6d49 9ebe
00000300: da13 36be 03a9 d0bb ca1d 6dbf a707 a0be
00000310: b36a bebe 7540 d2bd fa42 8ebe b8ce 0abe
00000320: 758e a6be 165c c53d 5b9c 4bbf 263b 8ebe
00000330: 1f47 b8be 8831 783d 737e a1be 485b 02bb
00000340: a1e6 debe 7b16 073e 3edd 33bf 9bba 59be
00000350: b24c e7be b435 9fbc 9b19 02be 9949 de3d
00000360: b079 99be 9bac bd3d 203b 35bf c869 e3be
00000370: e025 a4be e093 0e3b bcda 21be 0f0f bbbd
00000380: 10aa c0be 1174 9bbd 23af 90bf 572e 18be
00000390: 9fa2 efbe 6aef 9f3d 99b3 9c3f e61f 21be
000003a0: 5c52 fbbd b1ef 7fbc c57d 513c 53a0 9ebe
000003b0: c6bd adbe b944 2d3e ae52 973f d15b ffbd
000003c0: ae8c 163e aa18 443c 9267 c03e 951a ffbe
000003d0: a50a d53c 4d3e 0b3e cbd7 7b3f a999 96bc
000003e0: ba43 a6bd d3c2 de3d d8b6 ed3e ee42 c2be
000003f0: 05b2 813b fc97 32bb 11bc 833f 0325 7dbe
0.12356519 0.14672716 0.07818749 0.14026126 0.039556146 0.14660726 0.22682539 0.1303531
0.04884056 0.21212173 0.36304352 0.09850059 0.23132719 0.0050325384 0.2417896 0.24909133
0.18770611 0.098267645 0.24944393 0.13007024 0.04676057 -0.000119449054 0.18384174 0.20797499
0.17145374 0.16340123 0.14005789 0.108882636 0.13041103 0.16053224 0.23616794 0.15540585
0.19389415 0.007167903 0.3215352 0.20412481 0.17664343 0.17408739 0.269313 0.14071298
-0.0053665936 0.18632168 0.25941262 0.16883199 0.1386238 0.17158166 0.48516122 0.12906055
0.16597946 -0.0029243554 0.3353697 0.2170347 0.23019986 0.19852693 0.23640214 -0.088014446
-0.04128544 -0.033218738 0.08322368 -0.06288662 0.2208408 0.017719606 -0.23211633 -0.107370205
-0.07665669 0.068951264 0.14297487 0.17126775 0.2214857 0.07706993 -0.33922893 0.03559977
-0.013507213 0.047650564 0.10414636 0.044431534 -0.03478017 0.01821722 -0.24540904 0.0045943465
0.13262026 0.16456625 0.07866546 0.039371457 0.036620375 0.083661646 -0.09141275 0.14676069
-0.03866484 -0.08627562 0.21969146 0.16350888 0.18703185 0.19262971 -0.00787896 0.17933567
-0.019854367 0.25068268 0.045029234 0.10086757 0.17772467 0.18537305 -0.34620813 0.003603055
0.12570293 0.27709523 -0.28264248 0.14086801 0.20243268 0.28548265 -0.2696878 -0.0007848756
0.13831052 0.19856906 -0.5277359 0.3034611 0.07732848 0.21503776 -0.22521237 0.056581683
0.15694495 0.20115285 -0.40908343 0.27315617 0.020927764 0.1725896 -0.117529556 -0.12864256
0.02630284 0.17418638 -0.42714068 0.07386632 -0.34175068 -0.09438699 0.017455671 -0.30561557
-0.5466677 -0.09871996 -0.02826585 -0.32224104 -0.29512587 0.0068678665 -0.123117894 -0.24427043
-0.41967714 -0.116661415 0.11097953 -0.20281772 -0.5202643 0.009020084 -0.067090355 -0.3532672
-0.51340437 -0.004958448 -0.015216366 -0.34940946 -0.36581966 -0.012578739 -0.026551599 -0.18014063
-0.3309324 -0.13993916 -0.22700563 -0.2776452 -0.29632744 -0.06963563 0.21915802 -0.3324749
-0.32138008 -0.02964416 0.0501797 -0.13840052 -0.3151399 -0.12489208 0.04650762 -0.14019671
-0.40428755 -0.13030794 -0.41602534 -0.31160638 -0.568845 0.06977506 0.41504085 -0.1988981
-0.44469348 0.03447458 -0.9691473 -0.32612655 -0.50261724 -0.11336243 0.29537818 -0.30915394
-0.1778101 -0.006367804 -0.9262358 -0.31255838 -0.3719078 -0.102662005 -0.27785474 -0.1355542
-0.3253056 0.096367046 -0.79535455 -0.27779502 -0.3599176 0.06059411 -0.31541786 -0.0019890834
-0.4353533 0.1319217 -0.70259464 -0.2126259 -0.451757 -0.019434787 -0.1270508 0.108538814
-0.29975653 0.092614375 -0.7079334 -0.44416642 -0.32060146 0.002175562 -0.15806097 -0.091337316
-0.37629747 -0.07590497 -1.1303447 -0.14861427 -0.46803758 0.078093365 1.2242309 -0.15734825
-0.12271568 -0.015621112 0.012786333 -0.30981693 -0.33933848 0.16920747 1.1822107 -0.124686845
0.14702103 0.011968771 0.37579018 -0.49824968 0.026006052 0.13597985 0.9837615 -0.018383818
-0.081183866 0.108770035 0.4642856 -0.37941688 0.003957989 -0.0027251234 1.0291768 -0.2472115

gru.weight_hh_l0 f4 [150, 50]
00000000: 19b7 cfbc df08 92bc 911f ab3e 6c34 4cbd
00000010: a04e 68be 9643 b83e 889f 523e 825f 723d
00000020: b6a4 efbe 5fb8 2a3d 485d eabc fe6f cbbd
00000030: d210 ddbd a9aa 83be c439 843e ba56 70bc
00000040: 8da7 43be 54f3 a93e 7f8a 973e 8b2d 133e
00000050: fd4f 1e3d 188e e23e d380 6c3e 30ed 85bd
00000060: 573e b43e 4b30 e5bb 659c fd3d 4285 3e3e
00000070: c50e 0e3e cb48 b33e 9dac a2be 659f 673e
00000080: 617f a5bc 900c 8d3d fc8a 0c3b 12bf 273e
00000090: 91aa 1abe 0b85 123f 724f efbe 6d6b 63be
000000a0: 10cf aebe 91cc 963e ac9d f3be 6565 a63d
000000b0: 7139 87bd 874b 8f3e 99bf 04bf f858 7dbe
000000c0: 1717 983e c7c3 ecbd 2fb8 0b3e 4f78 bdbd
000000d0: 3a5d f4bd 9d7c 75bd 3e5b b53d 6047 6ebe
000000e0: 270e 593c 67ab 3fbe 4594 99be bfcc 113e
000000f0: 5a27 863d 7ca6 d0be 85e2 a23d 498c 3e3d
00000100: d535 1bbe dbe4 fa3d 04dd dbbe 0131 f83d
00000110: bcaf ba3d e03f 1ebe 73b8 00be fbaf 4ebe
00000120: 1645 8a3e 53e9 ad3d 9f7f 5bbe 9241 1e3e
00000130: 1898 cd3e 3a30 033e 2e5a d2be acc8 5d3e
00000140: 3aa6 4ebd 7759 f7bd b054 9bbc 6ec2 3dbc
00000150: 131a 0a3e a9c3 5abd 59e3 f4be de70 a5be
00000160: 30ab c4bd 3f86 053e 29be d43c dee4 683e
00000170: acc6 27be 003a 80bd 09bc 81be 1c94 b83e
00000180: ed9f 973c 1263 95be 1e33 abbe 437c e1be
00000190: 71e5 c4bd 2b82 c73d b97d 30bd 54ec 0e3e
000001a0: ee25 d0bc 3d80 933d cda0 183d de68 593e
000001b0: b840 3a3d f84e d7bc 8d20 703e 76db afbd
000001c0: eb5f 18bc 668a 5fbc 271b 8f3e 716f 82be
000001d0: 889a 2bbe f002 b0bd 1363 b9bc fca2 b9bd
000001e0: 41e5 433d c4c4 ba3d 8caa 5abd 3c1e 9bbd
000001f0: a459 533d 42bc 163e 2031 9abd d1fe 663e
00000200: a2b0 ac3c 79f2 8bbd c2ae 16be cb5c 1b3e
00000210: 86a7 c1bc c447 c43b 2b8b 8ebd d897 443c
00000220: 417c e93d 3653 933e 41b9 2fbe c0c0 aebd
00000230: ea6e cabd c40f 923d caea 0fbe 18d1 873d
00000240: ffeb e6bd 6201 843e e063 c3bd 2403 fbbd
00000250: 6440 7ebd ac8d 9a3d 7e7e 22be f6d6 f23c
00000260: d155 103e 3a84 d3bd 3652 c03c 98c1 5cbd
00000270: db45 cbbd 1c14 aabe 5d9e 4f3e 3d39 dabd
00000280: 7f97 ae3d 8c85 0c3e 7b06 c2bd 0a90 933e
00000290: bc37 dbbe 6c92 01bc aea9 313d 3c3a 163c
000002a0: 932b 4ebe 4fb2 413e 5fd2 ae3e 3964 2f3e
000002b0: 0f28 9fbd 78fd 853e 3c5a 49be 26fe 98bd
000002c0: 67ee 1e3e 964c fe3c 5273 dbbd c282 bfbe
000002d0: b17e 2e3e 60c6 70bd e246 763d 4793 423e
000002e0: 10fb 263e 6842 61bc e1d3 933e 4732 c43d
000002f0: 4a53 01be d044 073e 71b8 963e 5808 19be
00000300: c6d3 b73c 39d2 81bd 158b bbbd c87c 23be
00000310: e370 d83e ea3e a1bd 05f0 57bd 8fe2 303e
00000320: 3c6d 973d 4ca4 2d3e ff24 02be 3e75 a9bd
00000330: 7a25 cb3d 6c7d 293e 439e febe 4702 e33d
00000340: 84ff 603e 6127 7a3e 6b8c b5be c7b4 793e
00000350: ee00 8fbe f896 10bd 385c 4bbc 0cbe 243e
00000360: b3e4 433d 10df 363c a62e cbbd ae27 513c
00000370: ab03 aabd 1177 293e 9e7a 593e 2c0f fd3e
00000380: 98f8 fb3d a381 12b7 f491 c7bd 02f2 063d
00000390: 0ea7 3b3e 741c 14be affa 6f3e ae3c 5f3d
000003a0: e555 a13e 27df 6f3d bea0 c73e d0cd bd3d
000003b0: 7f2a 663e 2911 0f3c 30ac 433e 6b36 51bd
000003c0: 3035 0e3e a769 d5bd d13c 1bbd 3da7 c03d
000003d0: faa6 b1bd eb29 f93c ace4 a33d 4569 9c3d
000003e0: 7d83 323d f3df f93d 8891 d1be 854f 0bbe
000003f0: 5905 833e cbe2 e1be 39b6 4cbe 6685 b4be
-0.025355862 -0.017826496 0.3342252 -0.04985468 -0.22686243 0.35989064 0.20568669 0.059173115
-0.46805352 0.041679736 -0.028608933 -0.0993347 -0.10794224 -0.2571614 0.25825322 -0.014669115
-0.19106884 0.33193457 0.29597852 0.14372842 0.0386505 0.44249034 0.23096018 -0.065393806
0.35203812 -0.0069942824 0.123833455 0.18605521 0.13872822 0.35016474 -0.31772318 0.22619398
-0.02020234 0.06887162 0.0021445146 0.16381481 -0.15104128 0.5723426 -0.467403 -0.22208948
-0.3414235 0.29452947 -0.47581232 0.08124808 -0.06602753 0.2798731 -0.51854855 -0.2474097
0.29705116 -0.11560779 0.13644479 -0.09251463 -0.11931844 -0.059933294 0.08855294 -0.23269415
0.013248003 -0.18717729 -0.29995933 0.1423826 0.065504745 -0.40752017 0.079533614 0.046520505
-0.15157254 0.12250682 -0.4294206 0.12118722 0.0911555 -0.15454054 -0.12570362 -0.20184319
0.27005833 0.08491769 -0.21435402 0.154547 0.401551 0.12811366 -0.41084427 0.21658581
-0.050451495 -0.12077611 -0.01896128 -0.011582 0.13486509 -0.053409252 -0.47829702 -0.32312673
-0.09602964 0.13039492 0.025969582 0.22743556 -0.16384381 -0.062610626 -0.25338772 0.36050498
0.018508876 -0.29177147 -0.33437437 -0.44040117 -0.09614075 0.097416244 -0.04308865 0.1395734
-0.025408711 0.07202194 0.037262727 0.2123141 0.045471877 -0.026282772 0.23449917 -0.08586781
-0.009300212 -0.013643837 0.27950403 -0.25475648 -0.16758168 -0.0859431 -0.02263025 -0.0906429
0.047826055 0.09119561 -0.053385302 -0.07574126 0.05159916 0.14720252 -0.07528901 0.22558142
0.021080319 -0.06833357 -0.14715102 0.15172116 -0.023639452 0.0059900004 -0.06960138 0.011999093
0.11400653 0.28774422 -0.17160513 -0.08532858 -0.098844364 0.07131913 -0.14054409 0.06631678
-0.112754814 0.25782305 -0.09540534 -0.122564584 -0.062073126 0.07546553 -0.15868565 0.029643517
0.14095236 -0.103279546 0.023476701 -0.053895563 -0.09925433 -0.33218467 0.20275255 -0.106554486
0.08524989 0.13722819 -0.09473892 0.2882083 -0.4281596 -0.007908445 0.04337471 0.009169158
-0.2013381 0.18915676 0.34144875 0.17128076 -0.077713124 0.26169944 -0.19663328 -0.0747035
0.15520631 0.031042378 -0.10715355 -0.37404448 0.17040516 -0.058782935 0.060126193 0.19001494
0.1630671 -0.013748743 0.28872588 0.09579902 -0.12629429 0.13209844 0.29437593 -0.14944589
0.022439849 -0.06338925 -0.09157387 -0.15965569 0.42273626 -0.07873328 -0.052719135 0.17273925
0.07393882 0.16957206 -0.12709425 -0.08274315 0.099192575 0.16551751 -0.4973012 0.11084419
0.21972471 0.24429084 -0.35458693 0.24385367 -0.27930397 -0.035300225 -0.012412123 0.16088122
0.047825526 0.011161581 -0.09921007 0.012765808 -0.08301481 0.16549326 0.21238181 0.49425638
0.12303275 -8.7324615e-06 -0.09744635 0.03294564 0.18325445 -0.14463979 0.23435472 0.054501228
0.31510845 0.058562424 0.38989824 0.09267771 0.22477148 0.008732119 0.19108653 -0.051077288
0.13887477 -0.10420542 -0.037899796 0.09406898 -0.086744264 0.030415496 0.080026 0.07637266
0.04358243 0.12200918 -0.40931344 -0.13604553 0.25590017 -0.44118342 -0.19991387 -0.35258025

gru.bias_ih_l0 f4 [150]
00000000: ff6d d23d b7f2 73be 1089 903e 9833 9cbe
00000010: 2e11 5fbe 6859 b03e 693a cd3e f630 783e
00000020: bd86 0b3d 23d8 263d fa04 94be ee09 f8bd
00000030: 36ca dc3e cf78 eebc 2360 083e 46a4 82bd
00000040: 5a10 2d3e b996 22bd 9b68 763d bc62 463e
00000050: 044b 29bd cef5 4bbd 4322 693e 770a a53d
00000060: 838d b23d 614a 46bd f3f7 023e b30c c63e
00000070: beb8 123e 8447 e03d dde8 063e bfc8 da3d
00000080: afde 5d3c d7e6 ffbd f41c 1f3e bdfd 90be
00000090: e53a b73c 14ff ed3d 4762 22bc 400b 7e3e
000000a0: 6678 973e 9bac 1bbe bdcf 2fbe 76a9 953e
000000b0: b5f7 063e a41d 4e3e fb85 983d c63e 873e
000000c0: 94ea 0bbd 29af e03d 5c1c dfbd 7e7b c2be
000000d0: b1dc a73d d387 513e 9ab5 3d3d 5b25 56bc
000000e0: eebb c0bd 1eea 8cbc ae8a 5bbe cc6e 89bc
000000f0: 9b42 98bd 93a6 aebe 304f 60be 284a 4a3c
00000100: 0c9d 3f3e 4fc6 77be 2d4a 203e dfaa 1d3e
00000110: 4f7f 183e 855c 82be 651f 8c3e 80af a73e
00000120: 9917 083d 1f08 dd3e cde5 9b3e 033f d33d
00000130: 82de a23e e1f0 c8bd 8788 10bd 1530 6f3e
00000140: e934 fabc d090 bfbd 9776 84be 7046 55bd
00000150: b54e e7bc 84bd ccbd 14d6 1a3e d79b 8f3e
00000160: 29f2 8a3d 860b 38be f367 103e 682a a0be
00000170: 61e6 4f3d 58e7 803b e78e 863e 330f 4f3e
00000180: d9e1 6a3d c538 953c fa8e b1be 25ae 153e
00000190: f7a8 afbe 4265 e1bd bb59 3a3d e65d 4ebd
000001a0: 3dc6 82be e3be 0d3e 71bc 6bbe 3e2c 223e
000001b0: 8508 5d3d c166 81bd 6bb3 43be 90e5 85be
000001c0: 4fa4 4fbe f5ee 26be 05b7 2b3e f2d9 88bd
000001d0: 1031 a7bd 3768 b03d 7fe8 a4be 65a8 b83e
000001e0: 2ab3 0ebe 4303 793d 579b 273e 5696 393d
000001f0: ccb3 15bd 0ccb dc3d 6b99 97be 19aa 243e
00000200: b722 983d f058 0c3e c32f 9ebe e5b0 a3bd
00000210: 16b4 b6bc fcf4 d63d f02f 0a3e da6c 533c
00000220: 4131 903e c417 a43e 2d2f 053d c6bf 22bc
00000230: 891c 2ebb 8af7 3fbe 448b 53be facc 8a3e
00000240: e56b 503d 0509 3bbe 8b31 5bbd 725c 873e
00000250: d252 7b3e 50f2 c23e
0.10274886 -0.23823057 0.2822957 -0.30508113 -0.21783897 0.34443212 0.40083626 0.24237427
0.034064043 0.040733468 -0.28910047 -0.12111269 0.43123025 -0.02911034 0.13317923 -0.06378989
0.16900769 -0.03969452 0.060158353 0.19373602 -0.041331306 -0.049794964 0.22766976 0.08058637
0.087183975 -0.048410777 0.12789898 0.38681564 0.14328286 0.109511405 0.13174768 0.106828205
0.013541861 -0.12495201 0.15538388 -0.28318587 0.02236695 0.11620918 -0.009911126 0.24808979
0.29584044 -0.15202563 -0.1716909 0.2923085 0.1318043 0.20128495 0.0744743 0.2641508
-0.034159258 0.10970909 -0.10894081 -0.37984842 0.081963904 0.20461969 0.046315767 -0.01307043
-0.09410845 -0.01720148 -0.21439621 -0.016776465 -0.07434579 -0.3411146 -0.21905208 0.012346782
0.18712252 -0.24196742 0.15653296 0.15397213 0.14892314 -0.25461212 0.27367702 0.32751083
0.03322563 0.43170258 0.30448762 0.10314753 0.31810385 -0.09811569 -0.035286453 0.23358186
-0.030542808 -0.09353793 -0.25871727 -0.052069128 -0.028235773 -0.09997085 0.15120727 0.28048584
0.0678447 -0.17973146 0.14102153 -0.31282353 0.050756816 0.0039338283 0.262809 0.20220642
0.05734429 0.018215546 -0.34679395 0.14617212 -0.34308597 -0.110056415 0.04549573 -0.050382517
-0.2554187 0.13842349 -0.23021103 0.1583719 0.053963203 -0.06318427 -0.19111411 -0.26151705
-0.20277523 -0.16302092 0.16769035 -0.06682195 -0.08163655 0.086136274 -0.3220863 0.36065975
-0.13935533 0.060794126 0.16367851 0.045309387 -0.03654842 0.107809156 -0.29609236 0.16080512
0.07428496 0.13705802 -0.30895814 -0.07992724 -0.022302669 0.10495946 0.13494849 0.01290437
0.28162578 0.32049382 0.032515693 -0.009933418 -0.0026567301 -0.18746772 -0.20658594 0.2710951
0.050884146 -0.1826516 -0.053514045 0.26437718 0.24543312 0.38075495

gru.bias_hh_l0 f4 [150]
00000000: 582f ac3d 9467 a5be 18b9 c43e 02a4 29be
00000010: 54da 67be 8722 743e d8f0 153e 20ee da3c
00000020: fbd9 efbc 59e2 e1bc def8 9abd d2cc 05be
00000030: 72d6 d03e e4d6 d13d 17f3 7c3d ea94 dd3d
00000040: af18 4e3e 964b 633d 27c4 1a3c 3658 6f3e
00000050: 87fd a73c 85dd fa3b 3424 8b3e 6293 5b3d
00000060: ad37 1c3e db93 143d 7fbb 013e 0150 ad3e
00000070: 1d50 98bd 4cfc 913d 7f7a afbd f15a 79bd
00000080: 58bd 3f3d 53b5 c03d a5b0 3f3e 1a2d 35be
00000090: 8fc9 a9bd 7d95 2e3e 281f 483c dbfa dd3d
000000a0: dfc7 9c3e ded6 11bd 5ba7 aebc aadc be3e
000000b0: 662b 063e 76af 7c3e 3117 e13d 7211 933e
000000c0: 72b6 5cbd 7a74 3e3e 5694 23bd 5d6d ffbd
000000d0: 62ac 073e 5e06 313e 3820 523d 4dd0 9ebc
000000e0: aafb 28be ec41 b23d a318 11be 964f f2bd
000000f0: 0834 c9bc 3241 60be dcf4 98bd b27e 6cbd
00000100: d1e0 363e c89c 34be 560b c3bc b4fb df3d
00000110: 4f12 893e 0bc0 0abe 47b0 893e 4291 9c3e
00000120: ae34 77bc fa3b b83e 1c7c ae3e 90ea de3d
00000130: 19a2 143e 74c6 13be 7be0 163d ac7b 293d
00000140: 1e8d 20bd c7d9 503d 0baf b3be ca4e 213e
00000150: be08 23be 4374 cb3c 6a85 ecbc 15e6 623e
00000160: fce0 1cbe ae1e 69be 871a 0b3e 803a 2abe
00000170: df5f 9a3d a9b0 573e 4938 293e efbf 873e
00000180: feb0 2dbd c7ff 453e afa6 5abe 12f0 123d
00000190: 8057 8fbe 95b2 81be 609f 723d ff2c ff3c
000001a0: f221 a9bd 5a9b 6b3e 466b 53bd 4af8 3a3e
000001b0: 1517 693d 56df bcbe e22a b43e f791 fa3d
000001c0: a195 cbbd 9150 46be 6801 f93d 1c6f 7f3e
000001d0: 52b7 e6bb 9025 0bbc a98a 15be 7934 6d3e
000001e0: c903 0ebe fd9a 4b3e 682b 70bd ef56 91bd
000001f0: c580 2fbe 5727 883e 5d52 57be 1c8b c33e
00000200: c95b 553d 9ef4 3f3d eae1 84be 1e58 b83e
00000210: 309e 313e f9f0 b4bd adf1 403d a1b4 fabd
00000220: 52a3 81bd 9211 afbd d6d7 3dbe 2a35 f13c
00000230: db69 ec3d 52ac 5dbe 2e55 c7be 4e03 2f3e
00000240: 16c6 51be 2ab8 923d 0d76 333e c221 a13e
00000250: ff16 163d eae8 473e
0.084074676 -0.32305586 0.38422465 -0.1656647 -0.2264188 0.23841296 0.14642656 0.026724875
-0.029278746 -0.027573751 -0.07566999 -0.13066414 0.4078861 0.10246065 0.061755266 0.10819419
0.20126604 0.055492006 0.00944618 0.23373494 0.020506633 0.0076558017 0.27176058 0.053607352
0.15255614 0.03627382 0.1266918 0.338501 -0.074371554 0.071282 -0.08568286 -0.060877744
0.04681143 0.09409585 0.18719728 -0.17692986 -0.082903974 0.17049213 0.0122144595 0.108388625
0.3062124 -0.035605304 -0.021320036 0.37277728 0.13102493 0.24676308 0.109907515 0.28724247
-0.05388493 0.1859912 -0.039936386 -0.12472031 0.13249353 0.17287585 0.051300257 -0.019386435
-0.16502252 0.0870398 -0.14169554 -0.11831586 -0.024560943 -0.2189987 -0.07468578 -0.057738014
0.17859198 -0.17637932 -0.023809116 0.109366804 0.2677178 -0.13549821 0.268923 0.30579573
-0.015088243 0.35983258 0.34079063 0.10884583 0.1451496 -0.14431173 0.036835175 0.04137771
-0.03919708 0.05098894 -0.35094485 0.15752712 -0.15921304 0.024835711 -0.02887221 0.22158082
-0.153202 -0.2276561 0.13584338 -0.16623878 0.07537817 0.21063484 0.16525377 0.2651362
-0.04240512 0.19335853 -0.21352647 0.03587348 -0.27996445 -0.2533156 0.059234023 0.031149385
-0.08258428 0.2300848 -0.051615976 0.18258777 0.05690678 -0.36889142 0.35188967 0.12234872
-0.09940649 -0.19366671 0.12158471 0.24944729 -0.0070408965 -0.008492842 -0.14603676 0.23164548
-0.13868631 0.19883342 -0.058635145 -0.070966594 -0.17138965 0.26592514 -0.21027513 0.3819207
0.052089486 0.046864145 -0.2595361 0.36004728 0.173455 -0.088350244 0.04710548 -0.122414835
-0.06329979 -0.08548273 -0.18539366 0.029444296 0.11543628 -0.21647766 -0.38932174 0.17091104
-0.2048572 0.07164033 0.17525502 0.31471068 0.036643025 0.19522443

gru.weight_ih_l1 f4 [150, 50]
00000000: 9ff1 54be e2ad 8abd dd4f 5a3d 4a7d 6c3d
00000010: 606f 08bf c8ea a6bd 35f4 1e3f 7713 063e
00000020: d5c6 25bd 1fdb f93e 0afb 80be 46dc e4be
00000030: 8ef3 e63b bb2b afbe 8c4e 1fbf ae3b 04bf
00000040: f542 343d 25b2 a03e 8f1b 133e 615b ad3d
00000050: 8882 783e 198f c8be 4b2a 3fbf 4504 84be
00000060: d054 00bc 929d b2be 1a6c dbbe fd4f 80bc
00000070: 0ef9 1dbc d9cc b93e 6a80 83be 3089 ddbd
00000080: 74c9 823e 7394 f4bd abc9 ab3d 3799 303f
00000090: 7f13 0ebe 2c49 54be e01f fdbe b03e eabe
000000a0: 2ff9 b2be 7b7d f43c 5a81 e93e d4a1 f7bd
000000b0: 6779 793e 980d 093f fccc 033e e441 6fbf
000000c0: 473b be3e ca8f 07bf 7153 1d3e d336 9a3e
000000d0: 62e6 383d a451 86be c633 04bf 9538 7e3e
000000e0: 472a c43d c470 e9be acba efbe 3772 a83d
000000f0: 0ad6 ff3d 9b0e ec3e 1338 dabe 135e 03bf
00000100: c6cc 10bf 7bad f63d 8bf3 893e 0971 373e
00000110: a43a 613d ac72 8bbd ab68 a7bd b222 12bd
00000120: b003 a0be aefb a9be b18a 273e 3132 963d
00000130: 0248 c83d d0eb a2be 1471 073f 4d0f 0e3e
00000140: 534a e0bc 5bff 213d 2895 e0bd 4a6e 31be
00000150: 9c60 1cbc b80a 653e 5924 1d3f 6e8c f33d
00000160: 415b 793e 0702 2ebe 6a7f 19bc 5065 e6be
00000170: cf67 28bb 4f6f f0bd 46e7 9d3e 4e91 a5be
00000180: 220c d1be 703a 36be 5e2a e93e 0016 e53e
00000190: d509 e23e 894f 01be d26d 2c3d 77bc f1be
000001a0: 919c aa3e f06f 46be 8c09 cdbe cbdc 4f3e
000001b0: 3750 c8be 2407 1bbf e38f 41bd 74a3 9dbe
000001c0: 759a 9cbe 1850 3c3e b355 9ebd fffd 853e
000001d0: 3f11 d03e 406f b83e 6fe4 f8bd 05a0 993d
000001e0: e1bc a1be 84e6 77be c239 323f 551d b03d
000001f0: ea49 12bc ad01 50bf 5a66 f13e 8841 b3be
00000200: 838d c6be 89de 0b3e a447 26bd c30a a1be
00000210: 2472 243f c278 ddbe f4b0 00be ee1d 00bf
00000220: 8ccf 57be b08e 0dbe dbe8 9ebc 7dec 593e
00000230: 5c42 663d 8843 533e f9d7 edbe 5128 ad3e
00000240: b755 3b3f 4a8b 993e befa f73e ca1f 57bd
00000250: c53c a13d 258f 61bd f79a 0a3e 4238 a13e
00000260: 446a 8b3d 97c2 293f 1c96 ecbd e520 b83e
00000270: 4d3a 883f 6b95 9d3e 1f3b f13d 82f6 a7be
00000280: 3e8f 29be fc3a bfbc ec07 c03e 6e5f aa3d
00000290: e02c b1be 16ee c3be eab1 c1bd 9c1c d7be
000002a0: f25f a23e 00cc fcbd 2c36 cf3e 68f3 b53e
000002b0: 5e06 86bd f42f 22bd a375 40be dac0 53be
000002c0: 06ff a13e 22c1 6dbe 3663 703d 4870 bfbe
000002d0: ab96 90be 4937 e0bd 34b9 3abe cf32 f2be
000002e0: 2ff4 a5be 85c5 2ebe a65a 1e3e cc43 96bd
000002f0: 6693 823e 3196 fbbc da4e 07be 03c4 923e
00000300: 6252 d2be 71d6 07bf e1d9 c03e adde 2b3e
00000310: f158 073e ecb7 0ebf 9422 933e ded2 d1be
00000320: 813f ccbd 8bf4 b73e 4635 e53d fa30 f63e
00000330: bdb3 a0be 2f72 833e 7a2e 4abd aa4f 6abe
00000340: f4d6 bfbc 7b26 363f f7ac 4b3e 399e e13e
00000350: 4f28 07be 93cf 14bf 2f45 4f3e 6a0d 9a3e
00000360: 3da0 923e a8c7 17bf 3d5e 663e b698 64bd
00000370: 4b96 193f 3051 b8be cd9c 8ebe deb0 8b3d
00000380: e43d d33d a03c be3e 4f21 0d3e 3160 05bf
00000390: a8cc 8b3f 1bb8 c4bd 28d9 4b3e 1e4c 6a3e
000003a0: f827 933c a0b9 5ebe 6953 0e3d 2b94 923e
000003b0: d510 113f 3a1b d53d fc8f a0be 976e 1bbe
000003c0: b459 273e e06f e93d e2dc 4e3e 762f 6e3e
000003d0: 61d7 0ebe ea27 b23d c861 e3be 7af2 b2be
000003e0: 732c 9b3e 178f c2be c8c8 f3be 0ab8 5d3f
000003f0: 0669 023f d4db d53e c9c1 cebd 8906 1f3e
-0.20795296 -0.06771447 0.05329882 0.057736672 -0.53294945 -0.0815025 0.6209138 0.13093363
-0.040472824 0.4879999 -0.25191528 -0.44699305 0.007048077 -0.3421305 -0.6222923 -0.51653564
0.044009168 0.31385913 0.14365982 0.08464695 0.24268544 -0.39171675 -0.7467391 -0.25784507
-0.007832721 -0.34885842 -0.42855912 -0.015663141 -0.009641899 0.362891 -0.2568391 -0.10817182
0.25544322 -0.11942377 0.083880745 0.6898379 -0.13874625 -0.20731038 -0.4943838 -0.45750952
-0.34955737 0.02984499 0.456065 -0.12091413 0.24362718 0.5353637 0.12871164 -0.93459916
0.371546 -0.5295378 0.15363862 0.30119953 0.045141585 -0.26234162 -0.516415 0.24826272
0.09578376 -0.45593846 -0.46822107 0.0822491 0.124919966 0.46104893 -0.42620906 -0.5131542
-0.5656246 0.120448075 0.2694362 0.17914213 0.054987565 -0.06808981 -0.08174261 -0.03567762
-0.31252813 -0.3319983 0.163615 0.07333792 0.097793594 -0.31820536 0.5290692 0.13873024
-0.02737919 0.039550167 -0.10965949 -0.17327228 -0.009544518 0.2236737 0.6138359 0.11892019
0.24351217 -0.16992961 -0.009368757 -0.4499917 -0.002569664 -0.117399804 0.3084051 -0.3233742
-0.4082957 -0.1779573 0.45540136 0.44743347 0.44148126 -0.12627997 0.04209692 -0.472141
0.33322576 -0.19378638 -0.40046346 0.2029907 -0.391237 -0.6055777 -0.04725636 -0.30788767
-0.3058659 0.18389928 -0.077311896 0.26170346 0.40638158 0.36022377 -0.12152945 0.075012244
-0.31589416 -0.24209028 0.6961938 0.08599345 -0.008928755 -0.8125256 0.471484 -0.35010934
-0.3877984 0.13659109 -0.040595666 -0.31453523 0.64236665 -0.43256193 -0.12567502 -0.5004567
-0.21075267 -0.13823962 -0.019398144 0.2128162 0.05621563 0.2063123 -0.46453837 0.3381982
0.73177665 0.29989082 0.4843349 -0.05252055 0.07872919 -0.055068154 0.13535677 0.31488234
0.06807378 0.66312546 -0.115520686 0.35962597 1.0642792 0.3077806 0.117788546 -0.32805258
-0.16558549 -0.023343556 0.37506044 0.08318983 -0.3460455 -0.38267583 -0.094577625 -0.42014015
0.31713825 -0.123435974 0.40471017 0.35537267 -0.06544183 -0.039596513 -0.18794875 -0.20679036
0.3163988 -0.23218206 0.058688365 -0.3739035 -0.2823995 -0.10948045 -0.18234712 -0.4730439
-0.3241286 -0.17067535 0.15464267 -0.0733715 0.2550308 -0.030711265 -0.13213673 0.2866517
-0.41078478 -0.53061587 0.37666228 0.16784163 0.13217522 -0.5574939 0.2873732 -0.4098119
-0.0997305 0.3592876 0.11191802 0.4808424 -0.3138713 0.25673053 -0.04936073 -0.22881952
-0.023417927 0.71152467 0.198902 0.44066027 -0.1319897 -0.58129233 0.20241235 0.3008836
0.28637877 -0.59289026 0.22496887 -0.0558097 0.59994954 -0.3599944 -0.27854005 0.06820844
0.10314539 0.37155628 0.13782237 -0.520999 1.0921831 -0.09605428 0.19907057 0.22880599
0.017963395 -0.21750498 0.034747515 0.28628668 0.5666631 0.10405584 -0.3135985 -0.15178905
0.16342813 0.113982916 0.20201448 0.23260292 -0.13949348 0.08699019 -0.4441054 -0.3495062
0.3030735 -0.37999794 -0.4761412 0.86608946 0.50941503 0.41769278 -0.10095555 0.15529837

gru.weight_hh_l1 f4 [150, 50]
00000000: 7197 c8be 364f 523e e684 443c 15a8 4c3d
00000010: 8c5d a23e d425 abbe f22e 2e3e b3fc d4bc
00000020: c6c6 26bf b152 eabe 17a0 e73d a6b2 3ebc
00000030: 29da 8b3e 5539 33bd 2472 cabd 6fec 273d
00000040: 4b0c 1ebe 802a 69be be2e abbd c544 f83a
00000050: fbca d4bd 6039 e5be f7de e2bd c62a 67be
00000060: 014c 86be 748d 25bf bcaf f13e dd5e 61be
00000070: e8af 243e 93c1 a23b f68b d13d 8563 263f
00000080: c638 04bf 131b b53e 109b d9bd 87b5 e3bd
00000090: 59af 263d ac21 403e 6a3b c93e 992e 2a3e
000000a0: a6b0 d03e f469 4b3d 27a4 5ebe c3cc 1abe
000000b0: ca45 3abe 6f57 b43c 6ad2 853e 1e7c 663e
000000c0: 22d5 013e 3fe2 debd 964e e03d cda1 5abe
000000d0: e436 a3be 4843 c0bd 15d9 a5be 638b 10be
000000e0: 009c 2d3f 7d43 94be 27b3 023f 5a5c 973e
000000f0: afbf c1be 73ea ee3d 31a2 c7bd 8068 453e
00000100: 9cd6 74bd f357 0dbf 93e6 443f 5c12 52bd
00000110: 5c64 72be 2213 f53c c4d9 2f3d d656 093f
00000120: fdcd 643e 1b3f ac3e f350 753d 6596 38be
00000130: 0491 00bf d56f 2bbe 57b4 603e e979 e43d
00000140: 14ce f5be f8e4 f5bd c797 c8be 85b2 89be
00000150: 8ace 2ebf cd2c 4cbf bd61 88be ac25 7c3e
00000160: e3a2 873e b7b6 95be d82e 6b3e c103 283e
00000170: 0428 1ebe a5a9 303b 52e9 68bd b9bd 043f
00000180: b92f 6abe 1dc9 23be afc6 f7bd 1443 093f
00000190: 7b5f 76be 1873 7a3d e426 053e 369d 2a3f
000001a0: 5163 d43c 5100 00bf 0da5 08bf eb36 633e
000001b0: e43a 08bf aa69 0dbf 0455 f4bd ba28 323f
000001c0: 0b6d 5f3e 6c67 153d f22c f23e 9316 b439
000001d0: b664 3e3e 91b5 2ebf bd78 d23e f4ae 973e
000001e0: c140 0cbf dad1 dbbe 920f b2be 70fa 50be
000001f0: c393 bc3e d772 1fbe 8952 183f 9833 05bf
00000200: 0195 98be e97a 04bf 920d 7a3d cca0 7bbf
00000210: 72c5 093f bb6e c93e 0d74 193f 0e0f a1be
00000220: c9de 90bd 63ef 58bf 26f3 1fbf f842 3cbe
00000230: ccf9 113f da36 c5be 4dd2 d93e 9009 ad3b
00000240: c53c 573e a75f 7ebe 10a9 00bf a4ec 263b
00000250: 8ae0 91be 78e3 e0bd f793 843e 0d93 07be
00000260: 00ea 4bbe 1ea0 8e3e f0e2 ec3e 7ffb ec3e
00000270: 5301 083f 40df 97be 13e4 bb3e a0d5 a3be
00000280: 42b5 85be 444e 21bf 182c 833e 2c51 d13d
00000290: dfea 813e 1cff 593e dd5a e23e 2860 583e
000002a0: 3288 a0bc 4cea ac3e 94fe bf3e ac96 fc3e
000002b0: ab9c bc3d f431 d13e 48bc 213e 551e 5abd
000002c0: 16a3 e5bd 30e2 e63d bff3 113e 3be1 c73e
000002d0: 9b43 9cbe 913e 803e 82b4 06be 80d4 473e
000002e0: 2ed9 21bf f49d 993e 3fce 6b3e a725 4b3e
000002f0: d7b4 ca3d 202c ddbd daad b53d f4bd 633e
00000300: 3950 26be ed39 813e c8b7 d5bb 4c43 fe3e
00000310: d7ac 613e 52f4 5dbe 679d 813d 1cc6 bb3e
00000320: 3df6 56bd ee8a 7bbe e227 443d 9021 b9bd
00000330: 7140 fc3e 7e09 00bf c24a 053e 5a56 3f3c
00000340: d6d3 0f3e 62d0 afbe c1a3 a3be e89b aa3c
00000350: 5441 bcbc 9a1a f73e cbf0 843d 06f2 2a3e
00000360: 4d9e a33e b07d 27bd 7689 2ebe af82 d33c
00000370: d180 083e f991 173e 8e2c b5bb 86e5 f0bd
00000380: 2c86 5ebe e15f 233d c1cf 67be d668 473d
00000390: dc63 56be 7f81 d33e ff56 23be e50a 583f
000003a0: 6a4b 313d 94c6 d3be 0f45 84be ad52 9cbe
000003b0: a0d1 febc dc7f 8d3e db35 ba3c b91a 96be
000003c0: 4996 803d 7b91 8c3e 7ad4 ccbe 801d b0bd
000003d0: d1d4 adbe 86d3 1cbd 1acd d7bc 5837 fe3d
000003e0: 7115 e4be 48a1 383d c7a3 3fbe d13b 0ebe
000003f0: a348 763d e75f 013f 1fb5 1ebd ae7d 563f
-0.3917804 0.20538029 0.011994576 0.049964983 0.31711996 -0.33427298 0.17010096 -0.025999403
-0.65147054 -0.45766214 0.113098316 -0.011639273 0.2731488 -0.043755848 -0.09885052 0.040996965
-0.15434377 -0.22770119 -0.08358525 0.0018941393 -0.10390278 -0.44770336 -0.110776834 -0.2257491
-0.2622986 -0.64668965 0.47204387 -0.22008844 0.16082728 0.0049669235 0.102317736 0.64995605
-0.5164913 0.35372218 -0.10625279 -0.11118608 0.04069457 0.18762845 0.39303142 0.16619338
0.40759772 0.04966159 -0.21742307 -0.15117173 -0.18190685 0.022014348 0.26137096 0.22508284
0.1267896 -0.10882997 0.10952489 -0.21350785 -0.31877816 -0.09387833 -0.32392183 -0.14115672
0.6781616 -0.2895774 0.51054615 0.29562646 -0.37841555 0.116658114 -0.097477324 0.19278145
-0.05977498 -0.55212325 0.7691433 -0.05128704 -0.23671097 0.02991635 0.042932287 0.53648126
0.22344203 0.33641896 0.059891652 -0.18026121 -0.50221276 -0.1674188 0.21943794 0.11156065
-0.48008788 -0.12006563 -0.39178297 -0.26894012 -0.68283904 -0.7975586 -0.26637068 0.24623746
0.2649146 -0.29240963 0.22967088 0.16407682 -0.15444952 0.0026956585 -0.056863137 0.51851994
-0.22869767 -0.15994687 -0.12098443 0.5361798 -0.2405986 0.06114492 0.13003117 0.66646135
0.025926264 -0.5000048 -0.5337685 0.22188918 -0.5321486 -0.55239356 -0.11930278 0.69593394
0.2181894 0.036475584 0.47299916 0.00034349094 0.18593106 -0.682458 0.4110774 0.29625666
-0.54786307 -0.42933542 -0.34777504 -0.20408034 0.36831483 -0.15571152 0.5950094 -0.5203185
-0.2980118 -0.51750046 0.061048098 -0.9829223 0.538169 0.39342293 0.59942704 -0.31456798
-0.07073743 -0.84740275 -0.6248039 -0.18384922 0.57021785 -0.3851841 0.4254326 0.005280681
0.21019275 -0.24841176 -0.5025797 0.0025470639 -0.28491622 -0.10980886 0.25894138 -0.13239689
-0.19913483 0.27856535 0.4626689 0.46285626 0.5312702 -0.29662514 0.36697444 -0.3199892
-0.2611485 -0.6301005 0.25619578 0.102205604 0.25374505 0.21288723 0.44209948 0.2113043
-0.019596193 0.33772504 0.37498915 0.49333704 0.092095695 0.40858424 0.1579448 -0.053251583
-0.11212747 0.112736106 0.14253138 0.39039025 -0.3052033 0.25047734 -0.13154796 0.19514656
-0.63222015 0.3000332 0.23027895 0.19838582 0.09897774 -0.10799432 0.0887105 0.2224043
-0.1624154 0.25239506 -0.0065221526 0.49660718 0.2203859 -0.21675232 0.0632885 0.36674583
-0.052480925 -0.24564716 0.047889598 -0.09039605 0.49267915 -0.50014484 0.13016799 0.011678303
0.14045653 -0.3433867 -0.31960872 0.020826295 -0.02298037 0.48262483 0.0649124 0.16693887
0.3195671 -0.04089135 -0.17044625 0.02581915 0.1333039 0.14801778 -0.005528993 -0.11762528
-0.2173087 0.03988636 -0.22637846 0.048683964 -0.20936531 0.41309735 -0.15951155 0.84391624
0.04328481 -0.4136244 -0.25833938 -0.30531827 -0.031105816 0.2763661 0.022730758 -0.29317263
0.062786646 0.27454743 -0.40005857 -0.08599377 -0.3395143 -0.038287662 -0.026342917 0.124129
-0.44547608 0.045075685 -0.1871482 -0.13890006 0.060127866 0.5053696 -0.03874695 0.8378552

gru.bias_ih_l1 f4 [150]
00000000: 5dc5 5d3e 1c59 b53d f53c 52be 7087 81be
00000010: 5680 0f3e ead6 063e 4672 f53d 1070 45be
00000020: 54df 503e 2c5f 923b ab2f b1be 99e1 963e
00000030: 0e97 7fbd bc02 c03e d57c bf3b 8d54 f23d
00000040: 584b 083d 1328 bdbd a0d9 e6bd 0af0 3bbd
00000050: d736 e63e 7090 a8be 28f4 c93e 5dfc b73c
00000060: df60 2f3e 043d 723e b73a 143e 1d7d 763e
00000070: 1b92 d7be 8466 c73d 2b51 9fbe 345a a03e
00000080: f3f8 bcbe e9cc 9f3e b3d5 a23e 97ff 633e
00000090: 5dfc 263f db11 083d 78bc 75be d94b ecbd
000000a0: fae2 353d cd51 303d 0c96 fd3b 48fd 8dbe
000000b0: c082 74be c394 01bf cf34 363c 3c76 aebe
000000c0: b97d febe 4950 a3be b919 1fbe 3092 2f3e
000000d0: 8b20 a13e c7a0 aebe 1b7b ff3d a93d b73d
000000e0: 20cf cc3e 7097 10be 1f7a 3e3f b0a2 4abd
000000f0: f283 103f 49ca 20bd 71e1 473f 1477 00bf
00000100: 4e54 d63e 4556 8d3e 045a cfbc c27f 083f
00000110: 0692 8a3e 9b27 433e bf32 d6bd 3ad3 a6be
00000120: 302c cbbe 64cb fbbe 2af1 393d 12d5 9a3e
00000130: 69e1 6fbc 1465 06be 3aa0 b23d f0fe 833e
00000140: f47d 0c3f 8732 17bf 2f48 fa3d 7736 9a3e
00000150: 7a92 c93e 4bc4 0e3e 8109 573e 4832 10bf
00000160: 96cb dfbd 9b09 433f b101 ebbd 1896 0fbe
00000170: 3c9c b23e 7a19 663e 4e78 d43e d8e9 89be
00000180: 9ea7 c7be a309 b13c a7a1 7d3d 5bb6 153e
00000190: 2685 91bd e3dc 3abe 37ad d2bd 8af0 39bd
000001a0: e93e eabd 6f59 263a d449 403d de9b afbd
000001b0: eead 503e 3a3f 333e c4de 313e de50 f63d
000001c0: 54e9 2cbe ff0e b5bd 25cf 74be da45 913d
000001d0: 0bb3 ff3d 31eb 1abd bde1 8a3e 027d 68be
000001e0: 63d1 ee3c d399 eabd 078f 5e3e 090b a3be
000001f0: 6fb3 f1bc 188e 04be ea1f 66be 372e 53bc
00000200: 33f8 a2bd 1c37 a03c 626c edbe b0d6 bbbd
00000210: 8076 293d d100 3cbe a5e9 41bd 7564 34be
00000220: dee8 093e 059e 33bd 4812 e83c ca0e f3bd
00000230: f506 53be 51d2 acbd 6f82 1d3e 291c 103d
00000240: 617d 1cbe 7967 253e ee4d e23c ac5f 9dbb
00000250: 99b6 273e 13ac 173e
0.2165732 0.08854887 -0.20531066 -0.25298643 0.140138 0.1316792 0.119846866 -0.1928103
0.20397693 0.004466912 -0.3460668 0.29468992 -0.062399916 0.37502086 0.0058437386 0.11832533
0.03327498 -0.09236159 -0.112719774 -0.045883216 0.44963714 -0.32922697 0.3944409 0.022459203
0.17126797 0.23656088 0.14475523 0.24071164 -0.42103657 0.0973635 -0.31116614 0.3131882
-0.36908683 0.31211022 0.31803665 0.22265469 0.65228826 0.033220153 -0.23997676 -0.11537904
0.044405915 0.04304676 0.0077388342 -0.277323 -0.23878002 -0.5061762 0.011120989 -0.3407458
-0.49705294 -0.3189719 -0.15537156 0.1714561 0.3147014 -0.34107038 0.124746524 0.089473076
0.40001774 -0.14120269 0.7440509 -0.049471557 0.5645133 -0.039255414 0.7807837 -0.501817
0.41861194 0.2760488 -0.025311477 0.5331994 0.27064532 0.19058077 -0.10458898 -0.32583028
-0.3968215 -0.49178612 0.045396008 0.30240685 -0.014641144 -0.13124496 0.08721967 0.2578044
0.5487969 -0.59061474 0.12220799 0.30119678 0.39369565 0.13942067 0.20999719 -0.56326723
-0.10927503 0.7618653 -0.11474932 -0.140221 0.34884822 0.22470656 0.41498035 -0.2693622
-0.3899507 0.02161104 0.06192174 0.14620344 -0.07105474 -0.18248324 -0.10286944 -0.04539541
-0.114377804 0.0006345724 0.046945408 -0.08574651 0.20378849 0.17504588 0.17370135 0.12027143
-0.16885883 -0.08840751 -0.23907144 0.07093401 0.124853216 -0.037821952 0.2712535 -0.22703937
0.029152578 -0.11455121 0.21734248 -0.31844357 -0.029504506 -0.1294483 -0.22473112 -0.012889436
-0.079574965 0.019557528 -0.46371752 -0.09171808 0.041372776 -0.18359686 -0.04734196 -0.17616446
0.13467738 -0.04385187 0.02832903 -0.11868055 -0.20608123 -0.08438552 0.15381788 0.035183106
-0.15282203 0.16152753 0.02762505 -0.0048026647 0.16378249 0.14811735

gru.bias_hh_l1 f4 [150]
00000000: ff49 9b3e 82fb e23c 3476 c9be dc1a 8cbe
00000010: 1eb7 6b3e d0bf 1f3e 9b85 6a3e 4bdd 6cbd
00000020: 302f 673e 4bf0 033d b254 70be d018 d23e
00000030: c2a1 80bd 8427 9b3e b762 c23d 191d 303e
00000040: a6f7 fd3d 6270 8ebe cd06 e4bd 57e6 80be
00000050: c0fe a63e 3533 c8be 6efd c43e 22a8 63bd
00000060: eb0f e73d 4f57 8a3e e2bb 883e b129 873e
00000070: fa2a 6abe 2583 eb3d 9de8 7dbe 7644 793e
00000080: bd63 acbe 13e0 fb3e c9af f13e 039c 733e
00000090: e998 153f a7fb 013d 0587 53be 4dc2 e8b9
000000a0: 0be1 833d 9b66 09be 54d4 d33b bf91 f6bd
000000b0: c9f9 95be 6f52 e7be 4fdf ac3d fa56 43be
000000c0: e340 8abe 56f5 e6be dda6 97bd 6343 5e3e
000000d0: 9fac a03e 0957 debe df44 66bd 39d4 0d3e
000000e0: f570 d23e a1d1 ddbd b259 513f 8060 023d
000000f0: 2b25 103f 4adc 75be ed28 583f eb9f 2ebf
00000100: fe94 a93e b51c 9b3e b9ec f43d fba7 e03e
00000110: 108e 473e 18af 893e 6d3c 52bd 8a5b 3dbe
00000120: bb61 0dbf 233f ccbe 4175 9bbd 398b 1e3e
00000130: 97db d23d e52a 023d 6bcd be3d b828 c63e
00000140: 8298 343f 9cc7 10bf b665 543d 40c7 093f
00000150: 11ce cf3e e913 f03c d5cf cd3e 94d3 94be
00000160: 41d4 86be 2f49 3e3f 433a eabd e067 1cbe
00000170: b38d db3e 6d97 a93e 4ae0 b53e c73a 2dbe
00000180: b4e3 bcbe bd9c 163d 359d 973e 9f72 603c
00000190: 20f4 5e3e 773c 6a3e 95ec 03bf 0363 703e
000001a0: 4def 0cbe 9407 d9bb cc52 8d3d 80f5 d3bd
000001b0: 2a82 3cbc 1bc9 86bd c1be 22bd 37eb 14be
000001c0: e43a 96be 04ae 853e 78e1 8cbe 668c eabd
000001d0: 5bae 10be fa25 383e 940d c43e 91ef adbd
000001e0: b130 8abe b232 963d 8894 5f3e ab00 acbe
000001f0: 257b ebbe 3df3 6d3e 9cf0 723b 821c 2ebe
00000200: c09a 163e a107 5b3e bff7 5fbd a932 b03d
00000210: 757f e5be 81b2 13be d5ce 0ebe e23a 99bd
00000220: 528f 44bd 828f 6d3e 5882 f23d b46d a13d
00000230: a426 ce3e b175 b53e ae40 3bbd 772a 96be
00000240: 7c44 b8be be37 b73d e107 a5bc 6114 343e
00000250: 967f bebc 7c62 c1bd
0.30329892 0.027707819 -0.39347994 -0.27364242 0.23019072 0.15600514 0.22902529 -0.05782823
0.22576594 0.032211583 -0.23469809 0.41034555 -0.06280853 0.30303586 0.094914846 0.171986
0.12400751 -0.27820116 -0.1113411 -0.25175735 0.32616234 -0.39101568 0.38474602 -0.055580266
0.11282333 0.27019736 0.26705843 0.26398996 -0.22867957 0.11499623 -0.24795766 0.24342522
-0.33669844 0.49194393 0.47204426 0.23789982 0.5843645 0.031734135 -0.20656975 -0.00044395254
0.06439408 -0.13418047 0.0064645205 -0.120395176 -0.29292133 -0.4518008 0.0844103 -0.19076148
-0.2700263 -0.4510905 -0.074048735 0.21705393 0.313817 -0.43425778 -0.056218024 0.13850488
0.41101804 -0.10830999 0.8177749 0.03183031 0.56306714 -0.24009815 0.8443745 -0.68212765
0.33121485 0.3029534 0.11959214 0.4387816 0.19487786 0.26891398 -0.051327158 -0.1849195
-0.5522725 -0.3989192 -0.07590724 0.15482797 0.1029579 0.03177919 0.09316524 0.3870294
0.7054521 -0.5655458 0.05185481 0.53819656 0.40586904 0.029306369 0.40197626 -0.2906767
-0.26333812 0.7433042 -0.11436894 -0.15274 0.42881545 0.3312334 0.3552268 -0.16916953
-0.36892474 0.03677057 0.29612127 0.013699203 0.21772814 0.22874628 -0.5153287 0.2347527
-0.13763161 -0.006623218 0.06900558 -0.1034956 -0.011505643 -0.065813266 -0.0397327 -0.14542852
-0.29341805 0.26109326 -0.2751577 -0.1145256 -0.14129011 0.17983237 0.3829161 -0.08492959
-0.26990274 0.07333888 0.21834004 -0.3359426 -0.4599239 0.2323732 0.0037069684 -0.17003062
0.1470747 0.21389629 -0.05467963 0.08603413 -0.44823804 -0.14423563 -0.13946088 -0.07481934
-0.047988243 0.23199275 0.11841267 0.07882252 0.40263855 0.35441354 -0.04571598 -0.29329273
-0.3598975 0.08946179 -0.020145359 0.17585899 -0.023254197 -0.094426125

fc.weight f4 [1, 1500]
00000000: 73b1 ffbe 8ad5 b83e dc96 0d3f 71a4 cf3e
00000010: 43e5 8ebe 4dd9 14be 7305 b0be f912 f83e
00000020: e93e ebbe bd18 0f3f 994b d53e cdfb b63e
00000030: 463c afbc eae5 b73e 8d12 d93b 21a5 25be
00000040: f15c 8abe 1047 b6be 6757 663e fe05 3cbf
00000050: c91b d6bc 1ef0 37be aa8c cebd d7f9 db3d
00000060: cac7 93be 4722 c1bd 8e6a 1d3f 9d44 01bf
00000070: 4aa5 28bf c4c4 503d f386 363e bf96 6d3d
00000080: e238 3e3f 5ef3 203e 16ca df3e bca6 133d
00000090: 755e 4cbe 7ffd 1dbf c6a8 9b3c c5a1 71be
000000a0: 0aca af3e cc58 05bf 05f1 a7bf 959f 08bf
000000b0: 3a66 9fbe 8c3a 03bf 156f 21be d82d c73e
000000c0: 0e21 b2be 38f0 0fbf a5ff 47be 1c7a b43e
000000d0: cac4 e13d a511 973e f9f7 fdbd bae7 f43c
000000e0: 9724 65be 1ecc 0b3e 59ef d1be 0c91 fdbd
000000f0: 7c99 103f 13d7 7abc b5d7 6f3e 407d a63e
00000100: 77d9 423e 9a3f e93e 6c07 d63d 2686 68be
00000110: 1422 983d a96d 0fbf 44e0 02be 82c3 bfbd
00000120: 01b2 56be 74dd 4d3c 8155 87be 5a26 3dbd
00000130: a97c 8c3e a5fd 8bbd c2c2 90be c805 e33e
00000140: 5620 da3e e2ab 743d faa1 a63d b246 9f3e
00000150: e4a5 183e 51e2 553e faa4 9b3d 8e07 1ebe
00000160: 2de6 863d d826 cbbc a628 e43d c392 4dbe
00000170: 030c 2fbd d1ae bdbe 13bf 3b3d 5a82 a0be
00000180: b777 65be c7f0 653e 9f1e 0bbe 3aac 163d
00000190: 645c 71bd e781 6d3e 9835 593e adde 163e
000001a0: 83c0 d23d cc7b 6ebe a45e d7be fb83 5ebe
000001b0: 8e10 e1bd cae8 a0be fd03 1d3f e81b 123e
000001c0: 4a3d 2f3e 47c7 de3e d03c 1f3e 8383 203e
000001d0: bc61 0abe 0f70 5cbe cc75 fb3d 9547 74bd
000001e0: 5a55 52be 8471 85be 604e 223d d8c6 ec3d
000001f0: 6741 edbd d147 013e e094 81be b6b4 edba
00000200: 3299 02be 1f76 8e3e a562 c23e 6716 80bc
00000210: cea3 583b a73c 5c3e d5c9 60bd 0f19 493e
00000220: 61d1 ca3d b32b 283d 115b 223e 2737 233d
00000230: 1931 ef3c c4f2 29bd bc0d 163e ed11 99be
00000240: ea13 f73d 4d4b 72be 558d b43d c9ef 853e
00000250: 80c9 3e3e 3942 883e 926c f7bd 9947 b23e
00000260: 76f2 513d 5239 eebd 8b56 823d 32e7 1dbe
00000270: 2141 1dbe 5b95 25be a365 a8bd 5916 fb3d
00000280: b271 213f 1db5 473e 3ae2 753e 9223 0b3f
00000290: 2624 1b3d e7dc a639 bdfd 0b3e b87e 57be
000002a0: 7d69 b53c 505b 6b3e 16c1 933d 89c7 2fbe
000002b0: 3afb 903d 1ac4 3cbd 54fd b3bd 6889 253e
000002c0: d2e2 a23d 7f41 ebbc 8a7a cdbc a0c4 91bd
000002d0: 3c96 db3e 8fe8 00be fa94 c0bd 6603 b83c
000002e0: 8969 463e 7ec7 15bd 3c9c 17be 4119 353e
000002f0: b351 aabc 0169 a1be bc37 bd3e 55cc 3a3d
00000300: 9e5d 983e 5cc4 4bbe e22a 9ebe c8c3 ff38
00000310: 4275 193e b80b cebc 4835 4f3e 329d 10be
00000320: fc8d 8cbe a277 723d b146 5abe 85fb f6bd
00000330: b841 803e 6c57 d03e 9b6a f33e 3aec d83d
00000340: 9cf4 ab3d 02d3 f5bd 3c44 1a3f 6e90 a63e
00000350: 0f31 233e e1f7 713d e1a2 06be 3692 a3bd
00000360: 9512 2d3e 3ab8 f8bd f2ce 44bd a955 553e
00000370: 77aa 9b3e d6ce 3f3e 21e8 a43e 4c15 253f
00000380: c065 363e 382d fb3d 6b1e e73d 00cb b73d
00000390: 939a 34bd a399 07be cac4 da3e 4210 14bd
000003a0: b24e d83e f98c e6bc a50f b33e 4fc2 c1bd
000003b0: a7d7 bfbd 7fa5 563e cae4 003e 1d7e 9cbd
000003c0: dc80 a83e f6bf ad3d 7a5e 19be 6270 1c3e
000003d0: 7e35 64be 20d2 013f 73c6 953e e82d cb3c
000003e0: 8166 3e3e 5110 6b3e f792 91be 8121 e8bd
000003f0: 6d40 90be 7643 c23d ea1c 363e 3a23 263e
-0.4994007 0.36100417 0.5530832 0.40555146 -0.27909288 -0.14536019 -0.34379157 0.48451975
-0.45946434 0.5589712 0.4165924 0.35738984 -0.021391045 0.35917598 0.006624526 -0.16176273
-0.27024034 -0.3560109 0.22494279 -0.73446643 -0.026136296 -0.17962691 -0.10085423 0.107410125
-0.28863364 -0.09430366 0.61490715 -0.5049532 -0.6587721 0.0509689 0.17824917 0.05800509
0.74305546 0.15717837 0.43708867 0.036047682 -0.19957907 -0.6171493 0.019001376 -0.23596866
0.3433383 -0.5208862 -1.3120428 -0.533685 -0.3113268 -0.5126121 -0.1576503 0.38902164
-0.34790844 -0.5622592 -0.19531114 0.35249412 0.11023863 0.2950565 -0.12400813 0.029895652
-0.22377239 0.13652083 -0.4100292 -0.12381181 0.564842 -0.015310067 0.2342213 0.32517433
0.19028269 0.45556337 0.10450634 -0.22707424 0.07428375 -0.56026703 -0.12780863 -0.09363462
-0.2096634 0.012565006 -0.26432422 -0.046179153 0.27438858 -0.06835488 -0.28273588 0.44340348
0.42602795 0.059734233 0.08136363 0.31108624 0.14907032 0.20887114 0.07599826 -0.1543257
0.06586871 -0.024798796 0.111405656 -0.20075516 -0.042736065 -0.37047437 0.04583652 -0.3134945
-0.22408949 0.2245513 -0.135859 0.03678534 -0.058926 0.23194085 0.2121185 0.14733382
0.10290625 -0.23289412 -0.42064393 -0.21730034 -0.10989486 -0.31427604 0.6133421 0.14268458
0.17113224 0.43511412 0.15550542 0.15675168 -0.13513845 -0.21527122 0.12278327 -0.05963858
-0.20540372 -0.26063168 0.039625525 0.11561364 -0.1158474 0.12625052 -0.25308895 -0.0018135521
-0.12753752 0.27824494 0.37965885 -0.015635682 0.003305662 0.21507512 -0.054879982 0.19638465
0.09903217 0.0410573 0.15855052 0.03984752 0.029198216 -0.041491285 0.14653677 -0.2989649
0.12064345 -0.23661537 0.088160194 0.26159504 0.18631554 0.26613024 -0.12081255 0.3482025
0.05125662 -0.11632027 0.06364163 -0.15420225 -0.15356876 -0.16170256 -0.08222511 0.12260122
0.6306411 0.19502683 0.2401208 0.5435115 0.03787627 0.00031826572 0.13671012 -0.21044433
0.022145027 0.22984052 0.072145626 -0.1716596 0.07079168 -0.046085455 -0.08788553 0.16165698
0.07953419 -0.028717754 -0.025082845 -0.07117581 0.42888057 -0.12588714 -0.09403415 0.022462558
0.19376196 -0.036567204 -0.14805692 0.17685415 -0.02079091 -0.31525424 0.36956584 0.045605022
0.29758924 -0.19899124 -0.30892092 0.000121958146 0.14986137 -0.025152072 0.20235169 -0.14122465
-0.27452075 0.059196122 -0.21316029 -0.12059692 0.2505014 0.40691698 0.4754227 0.10591932
0.08396265 -0.12003137 0.6026037 0.32532066 0.15936683 0.059074286 -0.13148071 -0.07986872
0.1690162 -0.121445134 -0.04804892 0.20833458 0.30403492 0.18731245 0.3220835 0.6448562
0.17812252 0.12264484 0.11285099 0.08974266 -0.044092726 -0.13242202 0.42728263 -0.036148317
0.4224754 -0.028143393 0.34972873 -0.094608895 -0.09367304 0.20961569 0.12587276 -0.07641242
0.32910812 0.08483879 -0.14977446 0.15277246 -0.2228603 0.5071125 0.29252967 0.024802163
0.1859379 0.22955443 -0.28432438 -0.11334515 -0.28174153 0.094855234 0.17784467 0.16224375
